frozen_lake_dql.pt (torch, 2783 bytes, 4 tensors)

fc1.weight f4 [16, 16]
0	0x3dc754a9	0.097329445
1	0xbdb677db	-0.08909579
2	0x3e89e55d	0.26932803
3	0xbd2a9556	-0.041646324
4	0x3d80a75a	0.0628192
5	0x3bd69e00	0.006549597
6	0xbda81bd5	-0.082084335
7	0x3db71c7c	0.0894098
8	0x3dd160c8	0.10223538
9	0x3e70b54f	0.23506664
10	0x3e4a5bdf	0.19761609
11	0x3da85344	0.08219007
12	0x3e25f01c	0.16204876
13	0x3e23a135	0.15979464
14	0x3f17038b	0.5898978
15	0x3d8c19f0	0.06840885
16	0x3e2f30cd	0.1710846
17	0x3d9c86a4	0.07642868
18	0x3c1414e0	0.00903818
19	0x3d53fc58	0.051754326
20	0xbe21035c	-0.15723938
21	0x3e4a14d2	0.19734505
22	0x3e083a52	0.13303497
23	0x3dd8a004	0.105773956
24	0xbe5c47e2	-0.21511796
25	0xbe1fbd88	-0.15599644
26	0xbe492b72	-0.1964548
27	0xbe2feba2	-0.1717973
28	0xbd1903c8	-0.03735712
29	0x3d0a59b0	0.03377694
30	0x3d989804	0.0745087
31	0x3e657354	0.22407275
32	0xbb3b27fd	-0.002855777
33	0x3e0dc090	0.13842988
34	0xbe4164b3	-0.1888607
35	0x3eee21f8	0.4651029
36	0xbdaab0b1	-0.083344825
37	0x3e1986d4	0.14992839
38	0xbe78c382	-0.2429333
39	0xbe473a14	-0.19455749
40	0x3e798f89	0.2437116
41	0xbea8ed52	-0.3299356
42	0xbe8a79a8	-0.2704594
43	0xbe3abe2c	-0.18236607
44	0xbbc23c00	-0.0059275627
45	0xbe08e032	-0.13366774
46	0xbdd6aa04	-0.10481647
47	0x3db3fbc8	0.08788258
48	0xbd9a7e3c	-0.075436085
49	0xbd96a7b0	-0.073562026
50	0x3d6b2f00	0.05741787
51	0xbdc907d8	-0.09815949
52	0x3e536608	0.2064439
53	0xbd9d3960	-0.07676959
54	0xbe2275ea	-0.15865293
55	0x3df4f0a0	0.11959958
56	0xbe046468	-0.12928927
57	0xbe06b0d6	-0.13153395
58	0x3d2d9840	0.042381525
59	0xbd9e6bc0	-0.077353954
60	0xbe7c5c8a	-0.24644676
61	0xbd26ed10	-0.040753424
62	0x3bc4ea00	0.0060093403
63	0xbdc3fce4	-0.095697194
64	0x3e3ecbac	0.18632382
65	0xbe38d420	-0.1804967
66	0x3dc43398	0.09580153
67	0xbe738832	-0.23782423
68	0x3e5efaf8	0.21775424
69	0x3c8a3a00	0.01687336
70	0xbe6ff06e	-0.2343156
71	0xbe530bc4	-0.20609957
72	0x3e022136	0.12707981
73	0x3e64063e	0.22268006
74	0x3e0f85ba	0.14015856
75	0xbe687c82	-0.22703746
76	0x3d909718	0.07060069
77	0x3d281ec8	0.04104498
78	0x3d8eab58	0.06966275
79	0x3df41768	0.11918527
80	0xbe2ffbd1	-0.17185904
81	0x3e374275	0.17896445
82	0x3e4aa983	0.19791226
83	0x3ed352ee	0.41274208
84	0x3e035d94	0.12828666
85	0x3c944a10	0.018101722
86	0x3e23be6f	0.15990613
87	0x3ddd799c	0.10814211
88	0x3cf2b3bf	0.029626725
89	0xbe68ae2f	-0.22722696
90	0x3ec82e72	0.39097935
91	0xbe12b248	-0.14325821
92	0xbd74d178	-0.059770077
93	0xbe00a328	-0.12562239
94	0xbd8906a8	-0.06690723
95	0xbc999820	-0.018749297
96	0xbb4a3749	-0.0030855706
97	0xbd756128	-0.05990711
98	0xbd782cb0	-0.060589492
99	0xbe601130	-0.21881557
100	0x3ea7f38e	0.32803005
101	0xbe0dfb54	-0.13865405
102	0xbcb02780	-0.02150321
103	0xbe322f16	-0.17400774
104	0xbe4eeb58	-0.20206964
105	0x3d78dc59	0.060757015
106	0xbdccb804	-0.09996036
107	0xbdd1bf00	-0.102415085
108	0x3e237908	0.15964139
109	0xbdcb24a8	-0.09919101
110	0x3d926241	0.07147647
111	0xbd800df4	-0.06252661
112	0xbc5e24f5	-0.013558616
113	0xbd9df8ca	-0.077134684
114	0x3e83aada	0.25716287
115	0xbe05748a	-0.13032737
116	0xbd21234a	-0.039340295
117	0xbe084664	-0.13308102
118	0xbe396b97	-0.18107449
119	0x3dcaf458	0.09909886
120	0x3cd7a3db	0.02632325
121	0xbe3a7964	-0.1821037
122	0x3e79a909	0.24380888
123	0x3e1e5774	0.15463048
124	0x3e2724b0	0.16322589
125	0x3e3b70d3	0.18304758
126	0x3ed69b6c	0.41915452
127	0x3e4504b0	0.1924007
128	0x3da24bf9	0.07924647
129	0xbe2beb98	-0.1678909
130	0xbe32ef96	-0.17474207
131	0xbdb1b2c0	-0.08676672
132	0x3e4c2c05	0.19938667
133	0xbe175600	-0.147789
134	0x3e8acffc	0.27111804
135	0xbde05a04	-0.10954669
136	0xbe618ae2	-0.22025636
137	0xbd7d8c70	-0.06190151
138	0xbd7de000	-0.0619812
139	0x3e34ec62	0.17668298
140	0x3e4a3d3a	0.19749919
141	0xbcfba207	-0.03071691
142	0xbdc66354	-0.09686914
143	0x3e607370	0.21919036
144	0x3e2838af	0.16427873
145	0xbcd08460	-0.025453746
146	0x3d127238	0.03575346
147	0x3e2cd7f6	0.16879258
148	0xbe0ceebc	-0.13762945
149	0xbe79aca8	-0.2438227
150	0x3e784b87	0.24247561
151	0x3e231ff6	0.15930161
152	0x3d6f76e7	0.058463003
153	0xbd532a88	-0.051554233
154	0xbe4ce9cc	-0.20011061
155	0x3e5fbf86	0.21850404
156	0xbe23830a	-0.15967956
157	0x3d774c4f	0.060375508
158	0xbde24820	-0.11048913
159	0xbdc4a2e4	-0.096013814
160	0x3e14ca85	0.1453038
161	0xbe014594	-0.12624198
162	0x3ea379d0	0.31928873
163	0xbd490f11	-0.049086634
164	0x3e2738ef	0.16330312
165	0xbd6edf58	-0.058318466
166	0x3e5ca743	0.2154818
167	0xbdd434c0	-0.10361624
168	0xbe69a0dc	-0.22815269
169	0x3daa39cb	0.083118044
170	0x3ece9988	0.4035151
171	0x3e6ce12c	0.23132771
172	0xbc620560	-0.013795227
173	0xbe1ba01f	-0.151978
174	0x3d1eabd4	0.038738087
175	0x3d7a5ca8	0.06112352
176	0xbdfa7f30	-0.1223129
177	0x3e71d2ac	0.23615521
178	0xbddb21f6	-0.10699837
179	0xbd806813	-0.062698506
180	0xbe84d17b	-0.2594107
181	0xbe2770f8	-0.16351688
182	0xbe35af9f	-0.17742775
183	0xbdf41384	-0.11917785
184	0x3e6d1611	0.23152949
185	0x3e43355a	0.19063321
186	0xbe6c0e0d	-0.23052235
187	0xbd3545e8	-0.04425612
188	0xbe5efc0c	-0.21775836
189	0x3e9724aa	0.2952016
190	0x3e2cad2e	0.16862938
191	0xbd80af4c	-0.06283435
192	0x3e301634	0.1719597
193	0xbd1438d8	-0.036187023
194	0x3e3e79bc	0.18601125
195	0xbdd04078	-0.101685464
196	0x3d5e3f6c	0.054259703
197	0xbe41f408	-0.18940747
198	0xbe0c0fa8	-0.13677847
199	0x3cbbe4e0	0.022936285
200	0xbe39be1e	-0.1813893
201	0xbe27fb24	-0.16404396
202	0xbe22eaf8	-0.15909946
203	0xbe7a50f2	-0.2444494
204	0x3d78ff10	0.06079012
205	0x3ebeabdf	0.37240502
206	0xbe1f9ae6	-0.15586433
207	0x3d32fad0	0.043696225
208	0x3e0fa0b3	0.14026146
209	0x3da77c20	0.08177972
210	0xbe45965e	-0.19295642
211	0xbe1c03f6	-0.15235886
212	0x3ce083a4	0.027406521
213	0x3d8ce0a0	0.06878781
214	0x3d866c22	0.065635934
215	0x3d41cd50	0.047314942
216	0xbcc78d88	-0.02435948
217	0x3ebfb061	0.37439254
218	0xbe2a89e8	-0.1665417
219	0x3e154c18	0.14579809
220	0xbdef8218	-0.11694735
221	0x3e0ea5fa	0.13930503
222	0x3f0ed025	0.55786353
223	0xbd407e08	-0.046995193
224	0xbe626fbc	-0.22112936
225	0x3d712fdd	0.058883537
226	0xbdf15a58	-0.1178481
227	0x3d59e5a7	0.05319753
228	0x3ea3f912	0.32025963
229	0x3df0a3b8	0.11749977
230	0x3f0f23f4	0.55914235
231	0xbd5f4a80	-0.054514408
232	0x3cf5a475	0.029985646
233	0xbe39a5ca	-0.1812965
234	0x3efe3717	0.49651405
235	0x3e1f2d32	0.15544584
236	0x3e62b128	0.22137892
237	0x3d1197dc	0.035545215
238	0x3e8835a9	0.2660344
239	0xbcbcd730	-0.023051828
240	0x3e1b673a	0.15176097
241	0x3e5fc2ba	0.21851626
242	0x3db6bb47	0.08922439
243	0x3cc16f6a	0.023612697
244	0xbd8bd113	-0.06826987
245	0x3e6cd69e	0.23128745
246	0xbe7fc347	-0.24976836
247	0x3e2ea066	0.17053375
248	0x3e8be304	0.27321637
249	0xbd3388d5	-0.043831665
250	0xbd967f55	-0.073485054
251	0x3da61828	0.08110076
252	0x3e3ff6b2	0.1874645
253	0xbc508e6a	-0.012729267
254	0x3e5dcba5	0.21659715
255	0x3e38cfaa	0.18047968

fc1.bias f4 [16]
0	0x3ef10816	0.47076482
1	0xbe34122b	-0.17585056
2	0x3ea536de	0.32268423
3	0xbe6355cc	-0.22200698
4	0xbe6cb80a	-0.2311708
5	0x3e64cc2f	0.22343515
6	0xbd663a30	-0.056207836
7	0x3e21dd2e	0.1580703
8	0x3c45e768	0.012079097
9	0xbda793bc	-0.08182475
10	0x3e690735	0.22756656
11	0x3ea5928c	0.3233837
12	0xbd28b747	-0.041190412
13	0x3ec3c3ac	0.38235223
14	0xbd55e269	-0.052217875
15	0x3eac7271	0.33681062

out.weight f4 [4, 16]
0	0x3e9b408d	0.30322686
1	0x3d8bc5e0	0.06824851
2	0x3e634455	0.22194035
3	0xbdded0eb	-0.10879692
4	0xbe25747a	-0.16157714
5	0x3e77c015	0.24194367
6	0x3e7bba84	0.24582869
7	0x3c10bdb7	0.008834294
8	0xbe002bd6	-0.12516722
9	0xb8ba28a2	-8.8767396e-05
10	0x3eec4886	0.4614908
11	0x3d927c29	0.07152588
12	0xbd509278	-0.050920933
13	0x3db42288	0.08795649
14	0x3d8e566a	0.06950076
15	0x3ead7384	0.33877194
16	0x3e957dc5	0.29197517
17	0xbe16aa5b	-0.14713423
18	0xbef62a78	-0.48079276
19	0xbccc7e4f	-0.024962572
20	0xbce37c8f	-0.027769355
21	0xbc180eef	-0.009280904
22	0xbdb0dfbd	-0.08636425
23	0x3e1d5db6	0.15367779
24	0x3e6a6d32	0.22893217
25	0x3de19a35	0.11015741
26	0x3ed76ee6	0.42076796
27	0xbdfeeb1b	-0.124471866
28	0x3e1b6d86	0.15178499
29	0x3e438498	0.19093549
30	0x3e96e154	0.29468787
31	0xbd3f48a6	-0.046700142
32	0x3e8d8fba	0.27648717
33	0x3e17fd7e	0.14842793
34	0x3d56f6d5	0.05248149
35	0x3c86e776	0.016467791
36	0xbdfcac2b	-0.12337526
37	0xbe10ea0e	-0.14151785
38	0xbe69517b	-0.22784989
39	0x3db2a2c8	0.08722454
40	0xbe86ae71	-0.26304963
41	0xbd25c376	-0.04046961
42	0xbe1d9557	-0.15389
43	0x3eebf5d2	0.46085984
44	0x3e81f7f8	0.25384498
45	0x3effc392	0.49953896
46	0xbf20db57	-0.62834686
47	0x3e1c95e9	0.15291561
48	0x3d6e7858	0.058220237
49	0xbdfc60e5	-0.12323169
50	0x3e8da582	0.27665335
51	0xbdb031b4	-0.0860323
52	0x3e02554e	0.12727854
53	0x3de677d7	0.112533264
54	0xbcf7a3e8	-0.030229524
55	0x3ec6625b	0.38746914
56	0x3de9855e	0.11402391
57	0xbdc6814c	-0.0969263
58	0x3df48279	0.11938948
59	0xbd5df97d	-0.05419301
60	0x3e2d1e4c	0.16906089
61	0xbd523de0	-0.05132854
62	0x3ed7e777	0.4216878
63	0x3e887493	0.2665144

out.bias f4 [4]
0	0xbdc4fd3e	-0.096186146
1	0x3e91e58c	0.28495443
2	0x3d702f03	0.058638584
3	0x3e224d51	0.15849806
